model/dnn/bias_l3.npy (npy, 8272 bytes, 1 tensors)

array (column-major) f4 [2048, 1]
0	0xbf29d17d	-0.6633528
1	0xc01f52f3	-2.4894378
2	0xbfa3b05a	-1.2788193
3	0xbff5b55e	-1.9195974
4	0xbf47a42a	-0.7798487
5	0xbfda42b2	-1.7051604
6	0x3e823a09	0.25434902
7	0xbfd00212	-1.6250632
8	0xbdf8a1e5	-0.12140254
9	0xbfc6a635	-1.5519472
10	0xbd83ad7e	-0.064295754
11	0x40190700	2.3910522
12	0xbfaf365a	-1.3688462
13	0x40441668	3.0638676
14	0xbff1f767	-1.8903626
15	0xc0080792	-2.125462
16	0x404b1ab9	3.173506
17	0xbf8c929d	-1.0982243
18	0xbf93bd75	-1.1542193
19	0x40341963	2.8140495
20	0xbf7278f1	-0.9471579
21	0x4023ae8f	2.5575292
22	0xbff6856d	-1.9259468
23	0x3e0e99b0	0.13925815
24	0xc00094b6	-2.0090766
25	0xbfafb163	-1.3726009
26	0xbfca7587	-1.5817116
27	0xc00d1238	-2.204237
28	0xc02e38f8	-2.722227
29	0xbff922be	-1.9463727
30	0xbfa333d1	-1.2750188
31	0xc038e378	-2.8888836
32	0xbfa689a5	-1.3010756
33	0xbfe88acb	-1.8167356
34	0xbf4ee788	-0.8082204
35	0xc00ad59c	-2.1692877
36	0xbf962131	-1.1728879
37	0xbfe1cfbb	-1.7641519
38	0xbfec6682	-1.8468783
39	0xbff946c8	-1.9474726
40	0xbf34e51c	-0.70662093
41	0x3fc44b78	1.5335531
42	0xc000f591	-2.0149882
43	0xbfa1d9cd	-1.2644593
44	0xc00efbe7	-2.234125
45	0xbf8b5464	-1.0885129
46	0xbfb189dc	-1.3870196
47	0xbfce20d1	-1.6103765
48	0xbfc80f6b	-1.5629705
49	0xbfe1439a	-1.7598755
50	0xbff4eb66	-1.9134338
51	0xbf255be6	-0.6459335
52	0xbf4dae29	-0.8034387
53	0xbf95b81f	-1.1696814
54	0xbfe360b0	-1.7763882
55	0xbff4ed38	-1.9134893
56	0xbfa9decf	-1.3271121
57	0xbfae42f2	-1.361418
58	0xbfccea87	-1.6009072
59	0x3fc27e62	1.5194819
60	0xbfdfe740	-1.7492447
61	0x3fdbfa7e	1.7185819
62	0xbfb3b1ed	-1.4038674
63	0xbf1b023c	-0.60550284
64	0xc00b3812	-2.1752973
65	0xbf324e11	-0.6965037
66	0xbf932e49	-1.14985
67	0x3f2d56cf	0.67710584
68	0xc00cf0dc	-2.202201
69	0xc00fa4cb	-2.2444332
70	0xbfa5f17a	-1.2964318
71	0xbfb0cbbe	-1.3812177
72	0xbf8d9f97	-1.1064328
73	0x3efb5acc	0.4909271
74	0xbfe46ce5	-1.7845732
75	0xc0060946	-2.094316
76	0x3fcae7c2	1.5851977
77	0xc00d09cf	-2.2037237
78	0xbfeeb568	-1.8649111
79	0xbfd0c8a8	-1.6311235
80	0xc0096ec6	-2.147386
81	0xbf73494c	-0.9503372
82	0x3f389a4f	0.72110456
83	0xbf83a91a	-1.0285981
84	0xc028a490	-2.635044
85	0xbfe414ca	-1.7818844
86	0x3d8c14a0	0.068398714
87	0xbfcb1e38	-1.5868597
88	0xbfe8212d	-1.8135124
89	0xbfaff889	-1.3747722
90	0xc00c1e4e	-2.1893497
91	0x3ef956e5	0.48699108
92	0xbff43734	-1.9079347
93	0xbf2716fc	-0.65269446
94	0xc0107fc8	-2.2577991
95	0x3ee3041e	0.4433908
96	0xbfe9a1a9	-1.825246
97	0xbfcb7363	-1.5894588
98	0xbf81dfe8	-1.0146456
99	0xbfbf9fa8	-1.4970598
100	0xbf749053	-0.9553272
101	0x4067286d	3.6118424
102	0xbf823ab2	-1.0174162
103	0xbfc6de7c	-1.5536647
104	0xbf8d4190	-1.1035633
105	0xc01607f7	-2.3442361
106	0xbfbab1f5	-1.4585558
107	0x4000bab7	2.0113962
108	0xbfc34f65	-1.5258604
109	0x3eaa4f2e	0.33263534
110	0xbfe4b473	-1.7867569
111	0xbf8a2745	-1.0793234
112	0xbfd06aa7	-1.6282548
113	0xc0078c02	-2.1179204
114	0xbf8de422	-1.1085246
115	0xbfd8673e	-1.6906507
116	0xbfc63bc1	-1.5486985
117	0xbea513a3	-0.32241544
118	0xbf244e6d	-0.6418217
119	0xbfbab314	-1.45859
120	0xbfd24d8f	-1.6429919
121	0xbf8f8c3c	-1.1214671
122	0xc03380bf	-2.804733
123	0xbf957d90	-1.1678944
124	0xbfefb9f9	-1.8728629
125	0xbff9b377	-1.9507893
126	0xbfdb13c8	-1.7115412
127	0x3fa69bfb	1.3016351
128	0xc00b36bb	-2.1752155
129	0xbfd6ff3f	-1.6796645
130	0x40424762	3.0356069
131	0xbf972356	-1.1807659
132	0xbf8b8e21	-1.0902749
133	0xbfdbfd26	-1.718663
134	0xc014fe33	-2.328015
135	0xbfe93d17	-1.8221768
136	0x40932b3b	4.599027
137	0xbf46304b	-0.7741744
138	0xbfca63ad	-1.5811669
139	0xbfb60009	-1.4218761
140	0xbf796250	-0.9741564
141	0xbfc5e167	-1.5459412
142	0xbfe98900	-1.8244934
143	0xbfd03275	-1.6265398
144	0x3f0e6f98	0.5563903
145	0xbfd795cb	-1.6842588
146	0xbfedd17a	-1.8579552
147	0xbfa90857	-1.320567
148	0xc03b143b	-2.9231098
149	0x3ff7e2ee	1.9366128
150	0xc00bf488	-2.1868
151	0xbfd9311d	-1.6968113
152	0xbfcc408f	-1.5957202
153	0xbf88cd75	-1.06877
154	0xbfc06dab	-1.5033468
155	0x3f46881e	0.7755145
156	0x3fdc832e	1.7227533
157	0x401ab368	2.4172
158	0xbfbcff0d	-1.4765335
159	0x3fd71c16	1.6805446
160	0xbfe9988b	-1.8249677
161	0xc0251d2c	-2.5799055
162	0xbfd94ee0	-1.6977196
163	0xc00b627f	-2.1778867
164	0x3f8e39e3	1.1111416
165	0xbfef9d03	-1.8719791
166	0xbfd37ce7	-1.6522492
167	0xc00cba89	-2.1988852
168	0xbfb849c2	-1.4397509
169	0xc01e10b8	-2.4697704
170	0xc012ef47	-2.2958543
171	0xbfddc96b	-1.7327093
172	0xbfa76482	-1.3077548
173	0x3fcceb9f	1.6009406
174	0xbef58f39	-0.47960833
175	0xbf5602b2	-0.8359786
176	0x3fe51e80	1.7899933
177	0xbf95de33	-1.1708435
178	0xc0059d07	-2.0877092
179	0xbfdc25cf	-1.7199038
180	0xbf3ad633	-0.7298309
181	0xbfc7b5ab	-1.5602316
182	0xbf3dd5ce	-0.74154365
183	0xbfaf56be	-1.3698347
184	0xc0126610	-2.2874794
185	0xbf8a15be	-1.0787885
186	0xbfa8b7fc	-1.3181148
187	0xbf878253	-1.0586647
188	0xbfb6af6b	-1.4272283
189	0xbf77e667	-0.9683594
190	0xbfb04176	-1.3769977
191	0xc0247d66	-2.5701537
192	0xbf63171b	-0.8870713
193	0xbff58ae1	-1.9183007
194	0xbfe52c26	-1.7904098
195	0xbf5e4aaa	-0.8683268
196	0xbfdbabb2	-1.7161772
197	0xbf9c047c	-1.2188869
198	0xbfc88c83	-1.5667881
199	0xbfd99d47	-1.7001122
200	0xbf55fe88	-0.8359151
201	0xbfdfe539	-1.7491828
202	0xbff9c5a5	-1.9513441
203	0xbf8ab52d	-1.083654
204	0xbfb6ee2f	-1.4291438
205	0xc04b8e3c	-3.1805563
206	0x406dd190	3.7159157
207	0xbf286379	-0.65776783
208	0xbfc50412	-1.5391867
209	0xbf59df95	-0.85106784
210	0xbf99abb1	-1.2005521
211	0xbf5333b3	-0.8250076
212	0xbfebb012	-1.8413107
213	0xbe94b4fd	-0.29044333
214	0xbfdbfbdb	-1.7186235
215	0xc021118b	-2.5166957
216	0xc03849d3	-2.8795059
217	0xc023f40e	-2.561771
218	0x3e552ab5	0.20817073
219	0x40a3e0f7	5.1212115
220	0xbfc21abe	-1.5164411
221	0xbfa66a68	-1.3001223
222	0x3fc906df	1.5705222
223	0xbfaad61b	-1.334659
224	0xc0121560	-2.2825546
225	0xc008492d	-2.1294663
226	0xbfbf726c	-1.4956794
227	0xc019c1d5	-2.4024556
228	0x401088f3	2.2583587
229	0x3f85009c	1.0390811
230	0xbfa77b49	-1.3084499
231	0xbf4ef133	-0.8083679
232	0xbfca4f7d	-1.5805508
233	0xc0036148	-2.0528126
234	0xbf42d37d	-0.76103956
235	0xbfb8ded5	-1.4443003
236	0xbf5e5334	-0.8684571
237	0xbedb1622	-0.42790323
238	0xc000a654	-2.0101519
239	0x400084ee	2.0081134
240	0xbfe2bd4f	-1.7714022
241	0x408d6d92	4.4196253
242	0xbf61cd9a	-0.8820435
243	0xbfe9e771	-1.8273755
244	0xbf46508f	-0.7746667
245	0xbf967b98	-1.1756468
246	0xbfbd4fd8	-1.4789991
247	0xbfb58a43	-1.4182819
248	0xbf816174	-1.0107865
249	0xc0015fe8	-2.0214787
250	0x400a7a07	2.163698
251	0xc00a0b19	-2.1569273
252	0xbfbe0ae6	-1.4847076
253	0xbf98539a	-1.1900513
254	0xbfbe12bb	-1.4849466
255	0xc0208856	-2.5083213
