model/dnn/bias_l4.npy (npy, 8272 bytes, 1 tensors)

array (column-major) f4 [2048, 1]
-1.8804483 0.06522783 -1.2342929 -1.1621609 -0.64866793 -1.2664992 0.065884665 -2.8484225
-1.5055876 -1.0386616 -0.24417293 -2.2912784 -1.4685427 -0.66958076 -1.1802526 -1.7657387
-1.7709651 -2.8768065 -1.5502169 1.578005 0.90673506 -1.6269454 -1.4855021 -0.61432874
-2.6234198 -2.925894 -1.0911245 -1.5035363 -2.0607152 0.101333 0.72457635 -2.2611046
0.15407091 -0.45975965 -1.8058202 1.0510566 -1.9522922 -0.8615087 -2.35061 -0.26145053
-1.1104307 -1.3589767 -1.8978355 -1.874626 -0.6897292 -1.0725461 -1.747796 -1.5214461
-0.4569421 -1.9404532 -1.2175845 -1.1924803 -1.0880656 -0.4630354 -0.3183788 -2.0733533
0.06456357 -1.2142814 -0.96175194 -1.00576 -0.833277 -1.3464072 0.70594126 -0.64926434
-1.5755917 -0.81720334 -1.2184441 -1.1326416 -1.8425455 -1.5768478 -2.4193625 -2.6907198
-1.4179223 -0.05578542 -3.2024295 -1.8859514 -2.4026856 -1.4031963 -1.1579449 -0.2561498
-1.2682939 -0.32131028 -0.16022576 -3.106403 -0.6858053 -1.1842058 0.06476532 -0.19570726
-0.6557627 4.256105 1.3890474 0.097145 -1.5905441 -1.5437299 -1.9148211 -1.1476344
-0.52466434 -1.0352672 -1.3378351 1.6361587 0.119695775 -2.067653 -0.24223554 -0.82922596
-0.78235716 0.60504717 -1.565593 -1.3602659 -0.5866483 -1.734776 -1.1492641 -1.1083115
-1.2698851 -0.28871146 -0.4445603 -1.2562183 -1.7062194 -1.8167112 3.2371793 -0.74730396
-0.18697454 -0.23036854 -0.7393905 -1.5078236 -1.2475673 -1.0512786 0.065623365 -0.67535186
-1.2306048 -0.5957452 0.07502281 -0.9783878 0.06591147 -1.3515815 2.7976413 -3.050075
-1.0589613 -0.2988004 2.8685398 -1.4995754 -1.8859266 -1.0342237 -1.0905215 -1.0661435
-1.3094834 -0.4688252 -0.4050843 -1.1877447 -1.2579054 -0.71116215 -1.2171936 0.047474694
-1.2975647 -0.2552339 -1.4183146 -1.1949557 -0.53239036 -1.2435766 -1.2736807 -1.0357676
-0.2385588 -0.46142727 -2.3560762 -1.7072583 -0.9409428 -1.0563394 -1.8614526 -1.5622342
-1.4128542 -0.82009494 -1.359712 -1.4932246 -0.6695176 -1.510822 -1.1008499 -1.1686776
-0.7400311 2.7877815 -0.7933391 -1.718357 -1.1538553 3.7401829 -1.0933924 -0.3694917
-0.17256294 -1.7895085 -0.43483993 -0.37063056 -1.1067324 0.08177995 -1.9359748 -0.94218934
-1.3613604 -1.3410573 -1.4187554 -0.7021351 1.9108856 3.0007658 -1.5598183 -0.114040576
-0.4360244 -1.7104946 -1.7962985 -0.752829 -1.5688164 -1.0497344 -0.7470479 -1.9513743
-0.9725182 -1.3301116 -1.7201432 -1.6615634 -2.1535413 -2.0256972 -0.7558808 -0.28142253
-2.3156178 -0.96223986 -0.20111722 -0.3361209 -1.3060539 2.4478595 0.08499249 -1.2678553
-0.7352476 3.076778 -1.1503861 0.072012186 1.6550733 -0.9375766 -1.4816447 -0.72485924
-1.7245543 -0.43511605 -0.62816364 -1.4508464 -0.48126116 1.4464598 0.0070109395 -0.4196501
-1.4002082 -2.0740533 -0.31673762 -1.360414 -1.2322896 -0.5569325 -1.4137803 -0.7477821
-0.8193221 4.119882 -1.5239187 -0.5782625 0.4662541 4.197133 0.06963453 -1.5056936
00000000: 88b2 f0bf 2b96 853d 4ffd 9dbf b0c1 94bf
00000010: 1a0f 26bf a51c a2bf 8aee 863d 8e4c 36c0
00000020: 18b7 c0bf ddf2 84bf 7808 7abe 4ea4 12c0
00000030: 35f9 bbbf a569 2bbf 8412 97bf ba03 e2bf
00000040: fcae e2bf 991d 38c0 826d c6bf 11fc c93f
00000050: ca1f 683f bf3f d0bf ef24 bebf a644 1dbf
00000060: 1ce6 27c0 d941 3bc0 f8a9 8bbf e173 c0bf
00000070: c2e2 03c0 ad87 cf3d d67d 393f f0b5 10c0
00000080: c4c4 1d3e 9e65 ebbe 1e25 e7bf 0689 863f
00000090: b6e4 f9bf d68b 5cbf 6570 16c0 d8dc 85be
000000a0: 9822 8ebf f3f2 adbf 46ec f2bf bff3 efbf
000000b0: 1892 30bf 3149 89bf c8b7 dfbf bfbe c2bf
000000c0: 51f4 e9be c560 f8bf cfd9 9bbf 32a3 98bf
000000d0: bc45 8bbf fa12 edbe 8c02 a3be d2b1 04c0
000000e0: e839 843d 936d 9bbf 6035 76bf bebc 80bf
000000f0: a451 55bf 1257 acbf 91b8 343f 3036 26bf
00000100: fdac c9bf 3d34 51bf faf5 9bbf 66fa 90bf
00000110: 88d8 ebbf 26d6 c9bf d6d6 1ac0 c134 2cc0
00000120: 7a7e b5bf 417f 64bd 9bf4 4cc0 db66 f1bf
00000130: 9ac5 19c0 f09b b3bf 8a37 94bf 1126 83be
00000140: 7457 a2bf c882 a4be 3912 24be 4fcf 46c0
00000150: f090 2fbf 0e94 97bf aea3 843d 7c67 48be
00000160: 10e0 27bf 0332 8840 4ecc b13f f5f3 c63d
00000170: f396 cbbf f198 c5bf dc18 f5bf afe5 92bf
00000180: 6750 06bf a383 84bf 2e3e abbf a66d d13f
00000190: 0f23 f53d 6d54 04c0 980c 78be 2748 54bf
000001a0: 8f48 48bf 5fe4 1a3f 5a65 c8bf 311d aebf
000001b0: 952e 16bf 240d debf 161b 93bf 27dd 8dbf
000001c0: 988b a2bf fdd1 93be 689d e3be c3cb a0bf
000001d0: 6665 dabf fe89 e8bf f22d 4f40 504f 3fbf
000001e0: 4176 3fbe bbe5 6bbe b248 3dbf 5d00 c1bf
000001f0: 49b0 9fbf 4c90 86bf 8b65 863d dce3 2cbf
00000200: 7584 9dbf c282 18bf 8fa5 993d 9f77 7abf
00000210: 98fc 863d 9f00 adbf 8e0c 3340 6e34 43c0
00000220: 0b8c 87bf 5efc 98be 2896 3740 16f2 bfbf
00000230: 0b66 f1bf 7161 84bf 3596 8bbf 6477 88bf
00000240: 279d a7bf db09 f0be 3667 cfbe 0508 98bf
00000250: 0b03 a1bf b90e 36bf 00cd 9bbf d374 423d
00000260: 9a16 a6bf 05ae 82be 558b b5bf 4ff4 98bf
00000270: bc4a 08bf 852d 9fbf f807 a3bf 0894 84bf
00000280: c248 74be 3240 ecbe f4c9 16c0 7187 dabf
00000290: a1e1 70bf 2136 87bf 1444 eebf 4af7 c7bf
000002a0: 68d8 b4bf bef1 51bf 0b0b aebf fc21 bfbf
000002b0: 8165 2bbf 9e62 c1bf a6e8 8cbf 3a97 95bf
000002c0: ae72 3dbf 036b 3240 4518 4bbf 1ff3 dbbf
000002d0: 88b1 93bf 285f 6f40 48f4 8bbf 042e bdbe
000002e0: 57b4 30be 9d0e e5bf 57a3 debe 4ac3 bdbe
000002f0: 68a9 8dbf 3f7c a73d 06ce f7bf 5233 71bf
00000300: 0f41 aebf c4a7 abbf c799 b5bf 20bf 33bf
00000310: e697 f43f 8c0c 4040 20a8 c7bf 1b8e e9bd
00000320: 973e dfbe 7df1 dabf 1ced e5bf 67b9 40bf
00000330: face c8bf b25d 86bf 883e 3fbf a2c6 f9bf
00000340: f4f6 78bf 1941 aabf a72d dcbf 1cae d4bf
00000350: 9fd3 09c0 06a5 01c0 6781 41bf 9d16 90be
00000360: 1533 14c0 5a55 76bf acf1 4dbe 0a18 acbe
00000370: c62c a7bf bba9 1c40 8b10 ae3d 1549 a2bf
00000380: 3039 3cbf eee9 4440 da3f 93bf 207b 933d
00000390: 71d9 d33f 0505 70bf 89a6 bdbf 6090 39bf
000003a0: 32be dcbf 88c7 debe 55cf 20bf 56b5 b9bf
000003b0: dd67 f6be 9825 b93f 06bc e53b 61dc d6be
000003c0: 063a b3bf 4abd 04c0 6f2b a2be 0c22 aebf
000003d0: aabb 9dbf 2193 0ebf c1f6 b4bf a66e 3fbf
000003e0: 18bf 51bf 13d6 8340 c50f c3bf 0309 14bf
000003f0: dbb8 ee3e ea4e 8640 8c9c 8e3d 91ba c0bf
